model.pth (torch, 16787 bytes, 4 tensors)

linear1.weight f4 [256, 11]
000000 91 0f 65 3e 9c 5f 5d 3e cd 33 51 3e 5d 53 52 be
       0.2236922 0.21618503 0.20429917 -0.20539613
000010 95 30 7d bd 2e 20 1a bd 73 3f 0c be a6 85 a7 3e
       -0.06181391 -0.037628345 -0.13696079 0.32719153
000020 71 ae 4e 3e 7b 9d 43 3e 74 88 d1 3e 87 3f a6 be
       0.20183732 0.19103043 0.40924418 -0.32470343
000030 39 50 1b be b5 17 16 3f a1 ca 4d bd b4 2c 9e be
       -0.15167321 0.58629924 -0.05024207 -0.3089348
000040 a8 29 9a be 32 46 63 3e 4d f9 a9 3c f7 0b c3 bd
       -0.30109906 0.22194746 0.020748759 -0.095237665
000050 01 9f 83 3e bc 29 97 be 63 2e 5e 3e e4 63 84 3c
       0.25707248 -0.29524028 0.21697383 0.016160913
000060 f9 0b 21 3e f9 01 60 3d af 06 5c be 56 c0 8d 3e
       0.15727223 0.05468938 -0.21486925 0.27685803
000070 1f 6d c8 be 59 ff 9a be 99 06 6b 3e 2b 01 6b be
       -0.39145753 -0.3027294 0.22951736 -0.22949664
000080 aa c3 c7 3e db 09 5f be 74 da 66 be fa 87 82 3e
       0.39016467 -0.21781103 -0.22544271 0.25494367
000090 c1 b1 c4 be e9 79 57 be f2 1b a2 be 24 19 62 3e
       -0.38416865 -0.21042599 -0.31661946 0.22079903
0000a0 73 94 1b 3e c0 90 90 be 80 5a 8a be 8b be c3 3e
       0.15193348 -0.28235435 -0.2702217 0.3823131
0000b0 aa b0 7c 3e ab 87 c4 3e 43 07 ea 3e 24 dc 03 be
       0.24676767 0.38384756 0.45708665 -0.12876946
0000c0 33 d1 22 be c4 09 1a be 79 6e 83 bc 0f c1 a4 3e
       -0.15900116 -0.15042788 -0.016043888 0.32178542
0000d0 0a d6 ac 3e c5 07 cc 3e b4 48 43 3e f6 20 9a bc
       0.3375705 0.39849678 0.19070703 -0.018814545
0000e0 e7 cc e8 bc fc fc ec 3e b6 49 5f 3e 69 f5 4d 3e
       -0.028418018 0.46286762 0.21805462 0.20113148
0000f0 37 3b c0 3d b1 5b f3 bd bc 0f 71 bd 28 4f 0e 3e
       0.09386294 -0.11882723 -0.058852896 0.13897383
000100 49 62 7e 3e 77 b9 cd bc 05 8b af 3e ea c0 df be
       0.2484218 -0.02511285 0.3428575 -0.4370187
000110 23 4b ec 3e 02 9f 5c be c6 bf 12 3e 25 6a 77 be
       0.46151075 -0.21545032 0.14330968 -0.24161585
000120 ca 4f cd bc 51 54 d8 3e 46 48 c5 3d 56 8f b2 3e
       -0.02506246 0.42251828 0.09632926 0.34874982
000130 ac 89 6f 3e 51 a9 ca bc 6c a4 cf 3c a1 a7 c4 3e
       0.23392361 -0.02473894 0.025346957 0.3840914
000140 c0 8b 41 3e fd 31 84 bd a4 39 d0 be 50 93 fe bc
       0.18900967 -0.06454847 -0.40668976 -0.031076103
000150 18 bd 95 be c5 7b 80 3e 96 d4 ac 3e be 82 33 3e
       -0.2924583 0.2509443 0.3375594 0.17530343
000160 b9 11 bf be bb 58 d9 3e 18 84 45 3e fe bf 92 be
       -0.3731821 0.42450508 0.19288671 -0.28662103
000170 08 95 a0 be 95 90 a0 3c 20 8b 7a 3d a4 ad 82 be
       -0.31363702 0.019600192 0.061167836 -0.25523102
000180 d9 fa 6b be 12 bd 81 3e 0e b4 d5 3d b2 60 dc 3b
       -0.2304491 0.25339562 0.10434733 0.006725394
000190 62 b2 03 3f da d6 e5 bc 35 61 b8 3e f0 87 0f be
       0.51444066 -0.02805655 0.36011663 -0.140167
0001a0 8d f9 25 3e b0 66 1e be df aa 63 3d 89 43 a1 be
       0.16208477 -0.1546886 0.055582877 -0.31496838
0001b0 f3 1c ea be a0 dc 62 be 26 87 00 3e b8 84 ae 3e
       -0.45725212 -0.22154474 0.12551555 0.3408563
0001c0 d4 49 f5 be c9 6a 7c be d1 79 5b 3e 80 dc 8f 3e
       -0.4790789 -0.2465011 0.21433188 0.28097916
0001d0 0f 28 02 bd b5 7d 87 3e c6 64 18 be 0e d6 01 be
       -0.031776484 0.26463094 -0.14882192 -0.12679312
0001e0 9b 7c 59 be 73 ac d4 be 49 d6 47 3e 9e cf eb 3e
       -0.2123894 -0.41537818 0.19515337 0.46056837
0001f0 b1 f1 81 be ae b9 57 be 1b a1 fb bd 44 2e 3c be
       -0.25379708 -0.21066925 -0.12286588 -0.18377024
000200 37 b0 b0 3d ed bc 13 3e ce 06 94 3e b3 92 52 3e
       0.0862736 0.14427538 0.28911442 0.20563774
000210 6c 2a 11 3e 4a 59 f4 3c 69 28 ad 3e 54 56 e4 3d
       0.14176339 0.029827733 0.33819893 0.11149278
000220 d6 44 60 3d ae db 4e be 88 3d 64 be 97 17 80 3e
       0.054753147 -0.20200989 -0.22289097 0.25017998
000230 60 4c 22 3e 6c 25 44 3e 91 ee a6 3e 71 fa 15 3e
       0.15849447 0.191549 0.32603887 0.14646317
000240 d5 29 e6 ba 0d 77 c5 bc ee bc e1 be 3f 6f cc 3e
       -0.0017560074 -0.02410462 -0.44089454 0.39928624
000250 99 42 97 be 54 8f f5 3c 71 a6 06 bf b6 ea 82 3e
       -0.29542997 0.02997557 -0.5259772 0.25569695
000260 0f 2e 6d be 94 23 20 bf 0e a8 e2 bd 9c aa 98 bb
       -0.23162101 -0.6255429 -0.1106721 -0.00465901
000270 c5 44 00 3f f0 13 55 be bb 24 ae 3e 97 ca e6 bc
       0.50104934 -0.20808387 0.34012398 -0.028172774
000280 34 8d 03 3e cb 25 83 3e cd dd 40 bc 68 be a0 be
       0.12846833 0.2561477 -0.011771631 -0.31395268
000290 54 af 80 3e 05 5d b9 3e b4 59 a8 be 2c c8 52 be
       0.25133765 0.3620378 -0.32880938 -0.20584172
0002a0 7e 52 f6 3b bb fe 19 3e b2 41 68 be 61 ff f0 be
       0.007517158 0.15038578 -0.22681311 -0.4706984
0002b0 c1 01 af 3d 9c aa 83 bc 80 a3 aa 3e d2 fc 0c 3f
       0.085452564 -0.016072564 0.33327866 0.55073273
0002c0 a2 df e0 3e 0a 2f b5 3e 98 4a ea bb 68 ab 5c be
       0.43920618 0.3538745 -0.0071500055 -0.21549761
0002d0 d3 d5 8b 3e b3 12 50 be ad 60 83 bd 2d 0d c9 3e
       0.27311572 -0.20319633 -0.06414924 0.39267865
0002e0 3a ee 77 bd 7c 66 d4 3e 10 3a 6e 3e bc 57 a9 bc
       -0.060529925 0.4148444 0.23264337 -0.020671718
0002f0 83 7a b2 3e 0e 9d 0b 3e 51 53 43 be bb 15 08 3e
       0.34859094 0.1363413 -0.19074751 0.1328954
000300 e5 80 82 bd f1 5d 85 3c 70 98 1d 3d 65 72 81 3d
       -0.06372241 0.016280146 0.038475454 0.06320647
000310 c0 ce 0b 3e 8d 3e a4 be b1 02 fa ba c8 51 00 bf
       0.13653088 -0.32078972 -0.0019074288 -0.5012479
000320 81 a0 a0 3e 2e 46 5a be f7 f1 c5 3e 11 8a 1a 3e
       0.31372455 -0.21315834 0.38661167 0.1509173
000330 03 da 81 be 5d 6a e5 bc c8 14 6a be 1d 06 40 be
       -0.25361642 -0.02800482 -0.2285949 -0.18752332
000340 0d 98 f3 3e 4f 0f b7 3d 86 31 86 3e 7d ce 76 be
       0.47576943 0.08938467 0.26209658 -0.24102207
000350 4a a5 4e be 5a 02 2c be 14 b0 26 be 5b 7d f1 bd
       -0.2018024 -0.16797772 -0.16278106 -0.11791488
000360 85 df bb 3d 65 3b 40 bd 84 47 d1 ba 3b 96 93 bd
       0.09173492 -0.046931643 -0.0015966748 -0.072063886
000370 33 aa 1c be 3e a1 a9 be 57 60 dc 3d b0 6f 16 be
       -0.15299301 -0.3313083 0.10760563 -0.14691043
000380 7a 20 11 3e 9d 4a 8a 3e 2c 8e c2 be 2a 22 31 be
       0.14172545 0.2701005 -0.37999094 -0.17298189
000390 2f 59 b5 3e 74 21 4a 3e 06 66 ee 3d 1c 90 18 3e
       0.35419604 0.19739324 0.11640553 0.14898723
0003a0 6d 6f 5b 3d 55 bc b4 3e e1 a3 7f be f6 23 b5 3e
       0.05357306 0.35299936 -0.24964859 0.35379
0003b0 60 9c fc 3d a3 69 82 3e 51 6e 79 3e 16 59 57 be
       0.12334514 0.2547122 0.24358489 -0.21030077
0003c0 ff a3 8f be c7 ee 86 bd 29 d8 68 be 22 04 b1 be
       -0.28054807 -0.06588512 -0.22738709 -0.34573466
0003d0 53 26 32 3f b6 41 97 3d ad 8f af be 0f 2f 3f 3e
       0.6958973 0.0738558 -0.34289303 0.18670295
0003e0 fd ad 64 be 77 33 5e be 54 57 7d 3e dc ee 97 3e
       -0.22331996 -0.2169932 0.24740344 0.29674423
0003f0 39 69 95 be 48 95 5e 3d bc 7a 30 be b7 7e 88 be
       -0.2918184 0.054341584 -0.1723432 -0.26659176

linear1.bias f4 [256]
000000 51 b6 5a be ed c7 9c 3c 68 cb c6 bd b5 56 ea 3c
       -0.2135861 0.0191383 -0.097067654 0.028605798
000010 df 9d 89 be 2f 45 02 3e 5a 27 5a be 8d 2b 75 be
       -0.2687826 0.12721704 -0.21304074 -0.23942395
000020 1c bf 51 3e f9 03 ef 3d 54 30 68 be 30 38 f0 b8
       0.20483059 0.116706796 -0.22674686 -0.000114545575
000030 14 e1 15 bd 15 1e 25 3e f6 ca 37 be ab 2d dd bd
       -0.036591604 0.16124757 -0.17948517 -0.10799726
000040 bd 95 65 be 96 d3 51 bd ea 03 54 be 17 11 5a be
       -0.22420402 -0.051227175 -0.20704618 -0.21295582
000050 7a ee 08 3d 0a 17 32 be 14 2c f8 3c a9 a7 e6 bd
       0.033430554 -0.17391601 0.030294456 -0.112624474
000060 2c 2c 0d 3e 00 f2 e4 bc 27 d3 2d 3e ad 48 53 bd
       0.13786381 -0.027947426 0.1697508 -0.05158298
000070 40 62 24 be 1c 03 63 3e 9f c3 8a bd 43 a3 82 be
       -0.16053104 0.22169155 -0.06775593 -0.25515184
000080 e6 ac 86 bc 02 74 d4 bc 4e a4 95 bd a8 87 fd bc
       -0.016439866 -0.025934223 -0.07306729 -0.030948475
000090 26 64 2a be 21 10 20 be 80 06 14 be 50 33 08 be
       -0.16639766 -0.15631153 -0.14455605 -0.13300824
0000a0 1c eb 86 be a1 7f 88 3e 12 12 33 3e ce d7 ef bd
       -0.2635125 0.26659873 0.17487362 -0.11711083
0000b0 da 9b 45 be cf 25 8d be 0c 29 2d 3e e2 9f b8 be
       -0.19297734 -0.27567908 0.1691019 -0.3605948
0000c0 f3 91 2e be 15 fd de bd 24 8d 8b bd 69 74 09 be
       -0.17047863 -0.10888115 -0.0681403 -0.13423313
0000d0 0b 64 a3 be a4 ad 8f 3e 65 7a 1b be 03 f9 e4 3c
       -0.31912264 0.28062165 -0.15183409 0.02795077
0000e0 1d 22 29 3e 7e 1d 35 bd ae af 82 be 81 13 8d ba
       0.1651692 -0.04421758 -0.25524658 -0.0010763259
0000f0 b0 d2 3d be 88 f5 0a bd 14 3c 77 bd bf e0 7b be
       -0.18537402 -0.033925563 -0.06036003 -0.24597453
000100 78 6f 86 3d 30 ac 1f be 88 02 0f be 7d f3 3c bd
       0.0656423 -0.15593028 -0.1396581 -0.046130646
000110 35 1e a3 be 9b 28 81 be 59 89 02 3e 49 a3 cb bd
       -0.31858984 -0.25226292 0.12747706 -0.099432535
000120 13 78 29 3e 44 b5 09 3f ea 6d ad 3e e8 ef 19 3e
       0.16549711 0.53792214 0.3387292 0.15032923
000130 b4 6e a5 bd 9b ec 91 bb 18 01 94 be 36 15 7b 3d
       -0.080777556 -0.0044532544 -0.28907084 0.061299525
000140 19 f1 7b 3a 11 2a 81 3e 0f 34 67 be 14 06 5f be
       0.00096108165 0.25227407 -0.22578453 -0.21779662
000150 f4 16 81 be aa 46 50 bd 8d 18 24 3e d1 05 52 be
       -0.25212824 -0.05084864 0.1602499 -0.20510031
000160 13 c3 7c be 60 60 3a be 97 70 44 3c 8c 46 cf 3c
       -0.2468379 -0.18200827 0.011989734 0.025302194
000170 f7 67 16 3e 7b 5f 97 3d d5 e4 b9 3e f7 ac 6a bd
       0.14688097 0.07391258 0.36307397 -0.05729386
000180 9b 0f 9b be 17 3d 91 be 0b d7 0f be 90 41 61 3d
       -0.30285344 -0.2836692 -0.14046876 0.054994166
000190 01 ed a5 bd 72 8b 01 3e 91 4b 02 be b0 d6 2a 3d
       -0.081018455 0.1265085 -0.12724139 0.04170865
0001a0 29 29 87 bd 4e 7f e0 bd bf 0c 4f 3d 9e 63 11 be
       -0.065996476 -0.109617814 0.050549265 -0.14198157
0001b0 14 44 a8 bd 9b 1a 74 bd be 29 ff bd a5 bf 90 3e
       -0.0821611 -0.059595685 -0.124591336 0.28271213
0001c0 04 05 9f be 59 66 0f be 11 10 b3 3e 19 c0 6e 3e
       -0.31058514 -0.14003886 0.34973195 0.23315467
0001d0 06 a3 70 be 0f 3e 2e 3b 8b db 0a bd 53 2f 55 bd
       -0.23499689 0.0026587283 -0.03390078 -0.052047085
0001e0 05 4e 5a bd 40 ec 12 bd 8d e3 e2 bd 37 11 09 be
       -0.05329706 -0.035869837 -0.11078558 -0.13385473
0001f0 3d 2e dc bd 27 2f 69 be 7f 17 fe 3b 42 c5 1f 3e
       -0.10751007 -0.22771893 0.007754266 0.15602592
000200 c2 ac 89 be e2 65 f0 bd 5b 80 bd bc 7b da 03 be
       -0.26889616 -0.117381826 -0.023132494 -0.12876312
000210 a8 36 72 be 84 bc 06 3e ec d5 c4 be 7c 59 e4 3c
       -0.23653662 0.1315785 -0.3844446 0.0278747
000220 f0 e8 81 be 77 f7 57 be 14 d9 9e 3e f5 fe 67 bd
       -0.2537303 -0.21090494 0.31024992 -0.05663963
000230 00 ae 35 be 44 3d 6d 3e 20 9b 8f 3e 63 06 a1 be
       -0.17742157 0.23167902 0.28048038 -0.31450185
000240 80 dc 2a be b1 8e ad 3e 7e e9 85 be 0f 73 34 bd
       -0.16685677 0.33897927 -0.26154703 -0.04405504
000250 be ac 99 be 46 78 ad bd 9b 01 5b 3e f7 92 e1 bc
       -0.30014604 -0.08470206 0.21387331 -0.027535899
000260 e3 4e f5 3e 42 eb 24 3c f6 f8 0b be 13 3a a8 3a
       0.47911748 0.010065855 -0.1366919 0.001283469
000270 7a 19 87 be 28 09 53 3e c0 91 59 bd 54 3e cb 3e
       -0.26386625 0.20608962 -0.053117514 0.3969599
000280 63 a6 ee 3d da f2 c3 bc 0b b7 b5 bd 08 ed 8d be
       0.116528295 -0.023919512 -0.08872803 -0.27719903
000290 ef cb 56 be 53 01 59 be cb b9 d6 3d e7 26 68 be
       -0.20976232 -0.21191911 0.10484656 -0.2267109
0002a0 18 c6 39 bd 31 17 83 3c 21 db 83 3e e4 27 f3 bd
       -0.045354933 0.01600227 0.2575312 -0.11872843
0002b0 4a f3 94 be 6d dc b3 be ea cb 05 3e 0a d9 10 be
       -0.29091865 -0.3512911 0.13066068 -0.14145294
0002c0 09 61 b4 be ca 75 ac bd fc 21 ea be 38 c4 b9 3e
       -0.35230282 -0.08420904 -0.45729053 0.36282516
0002d0 44 37 05 3d 51 87 09 be 8e 7c 3e bd 78 66 86 3e
       0.03252341 -0.13430525 -0.046505503 0.26250052
0002e0 dd 51 cb bd 6e d0 4d 3c d8 be 30 be d7 cf a2 3e
       -0.099277236 0.012561901 -0.17260301 0.31799194
0002f0 a0 2e 50 bd 3f 27 22 be a3 89 b7 be b6 ca 9a be
       -0.050825715 -0.15835284 -0.35847196 -0.3023278
000300 22 d6 7f be 8e e5 17 be b4 b2 25 3e e8 b7 e2 3d
       -0.24984029 -0.14833662 0.16181451 0.110702336
000310 d9 31 5b 3e 32 e8 96 3d 70 dc 03 be f0 84 61 bd
       0.21405734 0.073685065 -0.12877059 -0.05505842
000320 25 15 03 3e f2 b6 b7 bd 63 e0 82 3e ef 4f 8b 3d
       0.12801035 -0.08970441 0.25561818 0.068023555
000330 b9 63 35 be 99 32 65 bc a2 0d 33 3d 8f 96 b9 3e
       -0.17713822 -0.013989114 0.043714173 0.3624768
000340 b3 4d 75 3e 51 f6 34 bd ac 90 ab bd 10 f7 b3 bd
       0.23955421 -0.044180218 -0.08377203 -0.08787358
000350 51 50 ec bc ea 76 90 be 45 67 a6 3d fd 59 8b 3d
       -0.028846892 -0.28215724 0.08125166 0.06804273
000360 ea 63 3f be ed 59 b1 be a0 35 5b 3c 62 63 2c 3e
       -0.18690458 -0.3463892 0.013379484 0.16834787
000370 f4 fa f1 3d 51 1f d2 bc db a0 9b 3c 55 e6 ac be
       0.11815444 -0.025649698 0.0189976 -0.3376948
000380 c2 5c c5 be e5 5d 1e be ad 0b d9 bd d6 2d ad 3c
       -0.3854733 -0.15465505 -0.1059793 0.02114002
000390 52 ca 05 bc 55 0d 28 be cb 74 a2 bc 19 ba 3c bd
       -0.008165913 -0.16411336 -0.019831082 -0.046075914
0003a0 6f c0 ed 3d 07 17 72 be 21 90 08 be d4 51 ef bd
       0.116089694 -0.23641597 -0.13336231 -0.11685529
0003b0 78 c5 07 be d8 ba a3 be 0c e7 74 be 32 33 57 be
       -0.13258922 -0.31978488 -0.23916262 -0.21015623
0003c0 43 d6 07 bc 1c b6 ae 3e 4d 12 ce 3d bc 0f 5f be
       -0.00829083 0.34123313 0.10062084 -0.21783346
0003d0 4f 6e 8c 3e 1b 3b 5e be f7 d3 d7 3d 73 df aa 3e
       0.2742791 -0.21702234 0.10538476 0.33373603
0003e0 cd 48 de 3c dc 55 d1 3d ad f8 17 be ef 81 f2 3e
       0.027134323 0.102214545 -0.14840956 0.47364756
0003f0 2e d8 18 3d 62 0f 27 be 94 3b d9 ba 06 ce 95 3d
       0.03731554 -0.16314462 -0.0016573542 0.073146865

linear2.weight f4 [3, 256]
000000 6a 9d fa bd 3e 91 d7 bd dc ec d0 be b0 2b 32 3e
       -0.122370556 -0.105257496 -0.4080571 0.17399478
000010 2c 5d 21 be f0 fc ae 3d 7a ab c7 be 11 57 f2 bd
       -0.15758198 0.08544338 -0.38998014 -0.11833013
000020 21 34 80 3e 53 f8 44 3e e4 15 26 be ba f5 8f 3b
       0.2503977 0.19235353 -0.16219288 0.0043933066
000030 f8 21 b7 bb 77 c3 eb 3e 8a 4d 7b bd c7 11 10 bf
       -0.005588766 0.46047565 -0.061353244 -0.56277126
000040 d1 f3 9d be d9 8c 4c 3c 2d 33 4d be fd b3 87 3a
       -0.3085008 0.012484753 -0.20039053 0.0010353323
000050 03 1a 02 3e 4e 18 4d be a9 a7 83 3d eb d0 86 bb
       0.12705235 -0.20028803 0.06428463 -0.0041142604
000060 3c 66 f0 bb e2 b4 c6 3e 7e ed 77 3e f7 32 9b be
       -0.007336406 0.38809878 0.2421169 -0.3031232
000070 61 c6 48 bd 36 1c 4a 3e e1 5b d8 be 0f ab 71 bd
       -0.049017314 0.19737324 -0.42257598 -0.059001025
000080 11 fc a7 be 4c 23 f9 be 03 e7 ef 3c e9 36 07 3d
       -0.328095 -0.48659742 0.02928496 0.03301135
000090 74 82 17 bf 75 7c b8 bd a3 01 96 be 76 06 d0 be
       -0.5918343 -0.09008113 -0.29298124 -0.4062993
0000a0 9a 20 9b be 86 d5 05 3e 12 88 3c 3e 16 7f b8 bd
       -0.3029831 0.13069734 0.18411282 -0.09008615
0000b0 fe 7e f0 be 05 3f 47 be 80 eb 3c ba 0a 2a f8 bd
       -0.46971887 -0.19457634 -0.0007206723 -0.12117393
0000c0 2e a3 14 bd cf 58 64 3e da 4a b7 3e 91 56 9a 3e
       -0.036288433 0.22299503 0.35799295 0.3014417
0000d0 d9 3b 33 be ca 0d 0c 3e 10 85 64 bd 08 e8 0a be
       -0.17503299 0.13677135 -0.05579096 -0.13565075
0000e0 5a c1 26 bd f0 ec 1f bf 3e b0 94 3b 48 4d ef bb
       -0.04071174 -0.6247091 0.0045376113 -0.007302914
0000f0 7d 24 3c bd 88 13 f6 bd 41 29 a2 be b3 e0 ee be
       -0.045933235 -0.12015444 -0.316721 -0.46655807
000100 90 54 70 3e 72 2d a3 bc 9b f9 66 bc 32 4e 74 bd
       0.23469758 -0.019919131 -0.0140975965 -0.059644885
000110 ed e9 5e 3c 6c f6 b3 bd 89 19 0b 3e b1 e6 42 be
       0.013605577 -0.087872356 0.1358396 -0.19033314
000120 22 b9 bb 3d 84 9f ac 3e f9 f6 9c 3e 35 95 72 3e
       0.09166171 0.3371545 0.30657175 0.2368973
000130 de a7 9f 3e 54 26 11 bd 98 b0 83 bc ca e4 a6 3e
       0.3118276 -0.035436943 -0.016075417 0.32596427
000140 8e a6 b7 3e 76 43 c6 3e ac ce 03 bf 84 aa 56 be
       0.3586926 0.38723344 -0.5148723 -0.20963484
000150 d9 92 74 be c3 b4 81 bd 41 bc fc 3d 21 05 a8 be
       -0.23884143 -0.06333306 0.12340594 -0.32816413
000160 72 6b af be cb 38 a2 be 50 70 25 bf 3f 3e 1e 3b
       -0.34261662 -0.31683955 -0.646245 0.0024145988
000170 da 90 25 3e 41 33 e2 3c f2 b1 10 3f dc e4 b1 be
       0.16168538 0.02761233 0.56521523 -0.34744918
000180 ee 44 84 be 3a 7e 25 be cd 79 88 be ed 99 5d 3e
       -0.2583384 -0.16161433 -0.26655427 0.2164075
000190 22 a7 e8 bd 2d 09 38 3e eb ef ce 3b ac af 45 3d
       -0.11360003 0.1797225 0.0063152215 0.048263237
0001a0 6a 2f c0 ba 5b c0 a1 bc 1f 09 7f 3c 50 b6 6b 3b
       -0.0014662568 -0.019745043 0.0155661395 0.003596682
0001b0 5d c4 d5 bd 85 2f ec bd fc 17 6f bd c2 d5 17 3d
       -0.10437844 -0.11532501 -0.058372483 0.03706909
0001c0 7a d1 96 3d 5e 87 1f ba 9b 49 11 3f 70 71 ad 3d
       0.07364173 -0.000608554 0.5675294 0.08468902
0001d0 a7 fc f8 bc 8e 0e 20 3e 86 42 b2 be 36 66 d0 3b
       -0.030393912 0.15630552 -0.34816378 0.0063598407
0001e0 16 c1 12 be cb d7 a6 3e da 34 08 3e a1 bd 8a bc
       -0.14331469 0.32586512 0.13301411 -0.016936125
0001f0 16 b3 e1 be 18 aa 82 be 8a b2 7a 3e 52 12 b6 3d
       -0.44081944 -0.25520396 0.2448217 0.08890213
000200 36 1c 16 bf ab 1a 39 bb b7 b9 b7 3b d6 d1 b1 bd
       -0.58636796 -0.0028244655 0.0056068557 -0.08682601
000210 ae 4f 2e 3c d1 80 02 be 60 c5 f9 bd 9c 91 e8 3d
       0.010639114 -0.12744452 -0.121958494 0.11355898
000220 d4 58 72 be eb 93 e0 bd e9 db f1 3d 38 df 7d 3c
       -0.23666698 -0.10965713 0.11809523 0.015495114
000230 d2 af e7 3e b5 c9 bb 3e 38 8a 8b 3e b3 a6 02 bb
       0.45251328 0.36677328 0.2725389 -0.0019935786
000240 84 4c 0a bf 18 43 31 3e 37 78 b6 bd 8f ea b2 bd
       -0.54023004 0.1731075 -0.08909648 -0.08736145
000250 6f fb 54 be c9 60 0f be 11 ab c5 3e 31 60 a6 be
       -0.2079904 -0.14001764 0.38607076 -0.32495263
000260 75 6c b1 3e 62 8d af be a9 45 45 bf 67 54 d2 be
       0.3465306 -0.34287554 -0.7705942 -0.4108002
000270 b4 09 e9 bd 16 04 ad 3d e4 47 a0 bc 28 19 3e 3e
       -0.11378804 0.08448045 -0.01956553 0.18564284
000280 c3 26 ac 3e da 7a 38 3d ce 46 e3 bb 80 39 1e be
       0.33623323 0.045039035 -0.006935931 -0.15451622
000290 6f 57 e5 be 48 e5 9d be 16 d3 39 3d 67 65 5c bd
       -0.4479327 -0.3083899 0.045367323 -0.053807642
0002a0 10 94 27 be 11 bf cc 3d 42 00 c2 3e a8 30 4e be
       -0.16365075 0.099973805 0.37890822 -0.20135748
0002b0 4e c3 0b bc fd f1 1f be 74 5f 01 3f 12 8f 47 bd
       -0.008530451 -0.15619655 0.50536275 -0.048720427
0002c0 f3 90 b9 bd ea c4 7b 3e f4 07 63 be 9f b7 62 3e
       -0.0906085 0.24586836 -0.22171003 0.22140358
0002d0 7b 4c a2 3d 5d 6c 2a 3e 06 a4 a0 be 01 ae 30 3e
       0.07924744 0.166429 -0.3137514 0.17253877
0002e0 6c 37 2e be 30 a2 d8 be 7c 0a ca 3d d8 d4 eb 3d
       -0.1701333 -0.4231124 0.09865281 0.11515206
0002f0 ad c2 38 be 84 1d 12 be 65 76 52 bd 04 0e 61 be
       -0.18043013 -0.14269072 -0.05138244 -0.21978003
000300 99 f2 9a be 31 5b 00 be d0 71 d0 3e 84 9d 90 3e
       -0.30263212 -0.12534787 0.40711832 0.28245175
000310 ca 27 5d 3d 96 1a 25 3e 58 68 5b 3e d0 0a 0e bf
       0.053993024 0.16123423 0.21426523 -0.5548525
000320 31 56 b8 3e 64 38 1f bd d3 18 81 3e ae aa 15 3e
       0.3600326 -0.038872138 0.25214252 0.1461589
000330 e1 50 e4 be 2e b8 98 3e 4b e7 b0 3e 73 97 8b 3e
       -0.44592956 0.29828018 0.34551463 0.27263984
000340 8a e9 91 3d 05 ad a8 3d 9b d1 47 3e 65 37 2f bd
       0.07124622 0.08236126 0.19513552 -0.042777438
000350 5b c9 ba be 85 47 95 bc d2 74 48 3d 00 a9 f1 3e
       -0.36481747 -0.01822258 0.048939534 0.4719925
000360 10 e6 5d 3d 8d 37 7d 3d 67 67 38 bd 62 e4 04 3e
       0.054174483 0.061820555 -0.045020487 0.12977746
000370 83 2e ce be 9d d0 43 be 67 9c b8 3c cd e0 05 bf
       -0.4026986 -0.19122548 0.022535516 -0.52296144
000380 18 49 1e 3d 11 db 07 bf 2b 53 b3 bd 41 87 59 3e
       0.038643926 -0.53068644 -0.087560974 0.21243002
000390 20 b4 56 be b8 35 f5 3b 37 ee 1b bc 52 86 b3 3e
       -0.2096715 0.0074832104 -0.009517244 0.35063416
0003a0 04 9f de be ed 8b 85 bc e7 18 7f 3c 4f 70 20 3e
       -0.43480694 -0.016302073 0.015569902 0.15667842
0003b0 61 eb a2 bd 34 d1 07 3c 41 60 71 be bf e6 2e be
       -0.07955051 0.008289624 -0.23571874 -0.1708021
0003c0 09 29 4d be d9 bf 02 3f 88 ae 0e 3d d0 67 dc bd
       -0.20035185 0.51073986 0.034834415 -0.10761988
0003d0 f0 e8 d1 3d 8b 4b 1f bd 06 05 58 be 7c ef 37 3e
       0.102495074 -0.038890403 -0.21095666 0.1796245
0003e0 21 f8 87 3c 6f ec fa 3e 2e f2 b0 be 62 9a 00 3f
       0.01659781 0.4900851 -0.34559768 0.5023557
0003f0 ef 92 b5 bd 85 fa 5c bd d3 ca ea 3d 7a 60 af bd
       -0.08865916 -0.05394985 0.11464467 -0.08563323

linear2.bias f4 [3]
000000 99 0d 4c 3e 6c c7 dd 3d 16 ac 96 3c
       0.19927062 0.10829052 0.018392604
